models/fno_model.pth (torch, 51026 bytes, 8 tensors)

fc0.weight f4 [32, 3]
0	0xbf18829c	-0.59574294
1	0xbef55dd2	-0.47923142
2	0xbe5d152f	-0.21590112
3	0x3e70761d	0.23482557
4	0x3e364220	0.17798662
5	0x3f01b17d	0.5066145
6	0x3ed57760	0.41692638
7	0xbdfcd7e3	-0.123458646
8	0xbf04ea8c	-0.5192039
9	0xbe3c2215	-0.18372376
10	0x3f0b530b	0.5442359
11	0xbed35ada	-0.41280252
12	0xbe78246e	-0.24232647
13	0x3f107108	0.5642247
14	0xbe08d222	-0.1336141
15	0x3d0d292b	0.03446309
16	0xbf02f3e4	-0.511534
17	0x3d8fe5e6	0.070262715
18	0x3f115b19	0.5677963
19	0x3d295e39	0.041349623
20	0x3e9e6852	0.30938965
21	0xbec07655	-0.3759028
22	0x3f1c37d3	0.6102268
23	0x3ebc046d	0.36722127
24	0x3f12f96b	0.5741183
25	0xbea96089	-0.33081463
26	0xbecec1d0	-0.40382242
27	0x3ee5f1c7	0.44911024
28	0x3ed76dd7	0.4207599
29	0xbef8c7ce	-0.4858994
30	0x3f11a1ff	0.5688781
31	0x3db35a67	0.08757477
32	0x3f19a188	0.600121
33	0x3e8892d7	0.2667453
34	0x3d2b2a66	0.04178848
35	0x3ddd2ae0	0.107991934
36	0x3f0cb079	0.54956776
37	0xbdd9afd1	-0.106292374
38	0xbe1ef9ff	-0.15525053
39	0xbf0ea056	-0.55713403
40	0x3eb83475	0.35977522
41	0x3e26dc9b	0.16295092
42	0x3eb1b0bc	0.3470515
43	0x3e070b74	0.13187963
44	0x3e29bf8f	0.1657698
45	0x3cd17174	0.025566794
46	0xbc897ec2	-0.016784076
47	0x3f03c0ad	0.51465875
48	0xbe2cf5ac	-0.16890591
49	0x3ecc2472	0.39871556
50	0x3f0fc224	0.5615561
51	0xbd78077b	-0.06055401
52	0x3e60a877	0.21939264
53	0xbeeb735e	-0.45986456
54	0x3ee55b3b	0.44796166
55	0x3ec84e87	0.39122412
56	0x3e75b4f0	0.23994803
57	0x3f062f23	0.52415675
58	0x3f1287f0	0.57238674
59	0x3e71d61c	0.23616832
60	0x3d8210f7	0.06350892
61	0x3f190d9e	0.59786403
62	0xbec5376b	-0.38518843
63	0xbf1998dc	-0.5999887
64	0x3cc9b30f	0.024621515
65	0xbe16adb9	-0.14714707
66	0xbedcd0c3	-0.43128023
67	0xbf05dd9c	-0.52291274
68	0x3eabda84	0.33565152
69	0xbe557620	-0.20845842
70	0xbee18b49	-0.4405158
71	0x3f0c55ac	0.54818225
72	0xbec359f0	-0.38154554
73	0xbf005607	-0.5013127
74	0xbe925abd	-0.28584853
75	0xbf074f01	-0.52854925
76	0xbf03c87e	-0.514778
77	0x3db270eb	0.08712944
78	0xbf0e2250	-0.55521107
79	0xbe637388	-0.2221204
80	0x3b906a9f	0.0044072415
81	0xbe5b17de	-0.21395823
82	0x3eb0a769	0.34502724
83	0xbf02435e	-0.50884044
84	0x3ead3074	0.3382603
85	0x3ef5cec6	0.48009318
86	0x3ef61894	0.48065627
87	0x3eb2420e	0.3481602
88	0xbed4f40b	-0.4159244
89	0xbe8b5140	-0.27210426
90	0xbe22ee9f	-0.15911339
91	0xbe7e6637	-0.2484368
92	0xbde96c33	-0.113975905
93	0x3e0f006f	0.13965009
94	0x3ef68c70	0.4815402
95	0xbdf9eabe	-0.12202977

fc0.bias f4 [32]
0	0xbe6dd45f	-0.23225544
1	0x3e534f12	0.20635632
2	0xbd4c0286	-0.049807094
3	0x3e84fdfd	0.25975028
4	0xbe68bf85	-0.22729309
5	0xbf0b29f7	-0.5436091
6	0xbe8ba8c8	-0.27277207
7	0xbcc57f07	-0.024108423
8	0x3e5508b5	0.20804103
9	0x3f029ac4	0.51017404
10	0xbee03e11	-0.43797353
11	0x3f1e91d2	0.61941254
12	0xbe1b489f	-0.15164421
13	0x3eab2be2	0.33431917
14	0xbecb6461	-0.3972502
15	0x3f11ff73	0.5703041
16	0x3e1d5f44	0.15368372
17	0x3c7107d6	0.014711341
18	0x3f0f8978	0.56069136
19	0xbe0c58cf	-0.13705753
20	0x3eff2f67	0.49840853
21	0xbe9db3b2	-0.3080116
22	0x3cf30873	0.029667115
23	0xbf0683c2	-0.52544796
24	0xbecb451d	-0.39701167
25	0xbe0b9c6b	-0.13633887
26	0xbc4a66a4	-0.012353573
27	0x3f166de5	0.58761436
28	0x3ee00c55	0.4375941
29	0x3eaffb28	0.34371305
30	0xbe48f13b	-0.19623272
31	0xbec0b101	-0.37635043

w.weight f4 [32, 32, 1]
0	0x3c8c73f4	0.017145135
1	0x3dcedded	0.10100923
2	0x3de3bdeb	0.11120208
3	0xbc7f70bd	-0.015590844
4	0xbe019c0a	-0.1265718
5	0x3d1532ef	0.036425527
6	0x3e253448	0.16133225
7	0xbda2895c	-0.079363555
8	0x3dfdebb5	0.12398473
9	0xbd3215cd	-0.043477822
10	0x3e0e5b76	0.13902077
11	0x3e03cd7c	0.12871355
12	0xbdcf8685	-0.101330794
13	0xbd0f8036	-0.03503438
14	0x3d834a4b	0.06410655
15	0x3e4853d3	0.19563226
16	0xbe09c351	-0.13453414
17	0x3d5f2de8	0.05448714
18	0x3e02d568	0.1277672
19	0xbd052db5	-0.032514293
20	0x3d15bb5d	0.036555637
21	0xbe3c215a	-0.18372098
22	0xbd8f6c09	-0.07003028
23	0x3dcbd2f3	0.09952345
24	0xbd87d88d	-0.06633101
25	0x3c74da0c	0.014944565
26	0xbde3eb1c	-0.11128828
27	0xbd6f586c	-0.058433935
28	0x3e25acb1	0.16179158
29	0x3e53fa0d	0.20700856
30	0x3d23a5a4	0.03995289
31	0xbe44f0a3	-0.1923242
32	0xbe2b0961	-0.16702797
33	0xbddc036f	-0.107428424
34	0xbde4bbe5	-0.111686505
35	0xbcf19904	-0.029491909
36	0x3d1f4d3e	0.038892023
37	0xbe20ca3c	-0.15702146
38	0x3d81dad6	0.06340568
39	0xbcc6d0e7	-0.024269534
40	0xbe12ff89	-0.14355291
41	0x3bece759	0.007229727
42	0xbde04538	-0.109507024
43	0x3d91312f	0.07089459
44	0x3de18983	0.110125564
45	0xbc8e46d3	-0.017367756
46	0xbe33a17a	-0.17542067
47	0x3e1ffac9	0.1562301
48	0x3e02a4c3	0.12758164
49	0xbd3607d2	-0.04444105
50	0x3e336b3f	0.1752138
51	0x3ddaef35	0.10690156
52	0x3e1f7c8b	0.15574853
53	0x3cb48a73	0.022038674
54	0x3d364acf	0.044504937
55	0xbcc10aa2	-0.02356464
56	0x3da61e1b	0.08111211
57	0xbc2279c6	-0.009916728
58	0xbdc3e7ea	-0.095657185
59	0xbc007dad	-0.007842463
60	0x3da19990	0.07890618
61	0xbe209cfc	-0.15684885
62	0xbe30301b	-0.17205851
63	0xbca25177	-0.019814236
64	0x3d8e3cf4	0.0694522
65	0x3da3d770	0.08000076
66	0xbd9d8d3c	-0.07692954
67	0x3d021214	0.031755522
68	0x3c980cd2	0.0185608
69	0xbe473b96	-0.19456324
70	0xbe081c2b	-0.13291995
71	0x3e08dc7c	0.13365358
72	0xbe4c0c5b	-0.19926588
73	0x3d37a07f	0.044830795
74	0xbe033927	-0.1281477
75	0x3da310da	0.079621986
76	0x3d61d13a	0.055131175
77	0x3db7bbb0	0.089713454
78	0x3d9e9374	0.07742968
79	0xbd04c22e	-0.032411747
80	0x3e0f3faf	0.13989137
81	0xbe05b167	-0.13055955
82	0x3da50ad6	0.080587074
83	0xbdd3ef30	-0.10348356
84	0x3bf42b67	0.007451463
85	0x3d8c8db3	0.068629645
86	0xbd46f101	-0.048569683
87	0x3abb7d19	0.001430425
88	0xbdd39690	-0.10331452
89	0x3e3be056	0.18347296
90	0x3c27aa3b	0.010233457
91	0x3d9f0ffb	0.0776672
92	0x3d6d1651	0.05788261
93	0xbdf83543	-0.12119534
94	0xbd2a3fe0	-0.041564822
95	0xbe396027	-0.18103085
96	0xbcd50641	-0.026003959
97	0x3e021622	0.12703755
98	0x3e1e79df	0.15476178
99	0x3e18f08b	0.1493551
100	0x3e3139bb	0.17307179
101	0xbda0bbe6	-0.07848339
102	0xbe2f34bf	-0.17109965
103	0x3be51f8a	0.006992285
104	0x3e254975	0.16141303
105	0x3d5433b4	0.05180712
106	0xbdd55916	-0.104173824
107	0xbc6833e0	-0.014172524
108	0x3e1040f6	0.1408728
109	0x3e25a9fb	0.16178124
110	0xbdb2b5b7	-0.087260656
111	0x3cdfd60b	0.027323743
112	0xbd0cb48d	-0.034351874
113	0x3e1bd054	0.1521619
114	0x3dc109b4	0.09425679
115	0x3d9874cf	0.074441545
116	0x3e31b85f	0.17355488
117	0x3c0fbf95	0.008773704
118	0xbd18ead7	-0.037333336
119	0x3ca6e76e	0.020374026
120	0xbe27e319	-0.16395225
121	0x3d46a2b6	0.048495017
122	0x3e323b28	0.17405379
123	0x3e34a637	0.17641531
124	0xbd67e16c	-0.056611463
125	0x3d577da5	0.05261006
126	0x3dc1f258	0.094700515
127	0x3a69a8d6	0.0008913403
128	0xbceb2872	-0.02870581
129	0xbdd48f5b	-0.103789054
130	0xbdf516b8	-0.11967224
131	0x3de50c0e	0.1118394
132	0xbe093708	-0.13399899
133	0xbe4fdc8b	-0.20298974
134	0xbe54cacb	-0.20780484
135	0xbd773e84	-0.060362354
136	0x3d21274d	0.03934412
137	0xbbe57767	-0.0070027593
138	0x3d623dc5	0.05523469
139	0xbc837cda	-0.016050745
140	0x3ce08408	0.027406707
141	0x3d98ddde	0.07464193
142	0xbe4d13d6	-0.20027098
143	0x3e3ebad4	0.18625957
144	0x3d143d9d	0.03619157
145	0x3e15fc3c	0.14647001
146	0x3d099cf2	0.03359694
147	0x3b5406ab	0.0032352607
148	0xbe0d5023	-0.13800101
149	0x3df60a0d	0.12013636
150	0xbdb09aca	-0.08623274
151	0x3c3312c4	0.010929767
152	0xbe0cd6bb	-0.13753788
153	0xbe139089	-0.14410605
154	0x3d7dda39	0.06197569
155	0x3e6cbc24	0.23118645
156	0x3c999559	0.018747972
157	0x3dd02895	0.101639904
158	0x3da1cb44	0.07900098
159	0x3de1e582	0.11030103
160	0x3e168176	0.14697823
161	0xbde55991	-0.11198724
162	0x3dcb4835	0.09925882
163	0xbdcc2669	-0.09968264
164	0xbd69bb9f	-0.057063695
165	0x3dac2eb1	0.08407343
166	0x3e29b3da	0.16572514
167	0x3d858376	0.06519215
168	0x3df3b7a7	0.11900263
169	0xbd4230ed	-0.04740994
170	0xbd579d43	-0.05264021
171	0xbd94c84e	-0.072647676
172	0xbd4eb652	-0.050466843
173	0x3dc7f5f9	0.097637124
174	0xbdd6f473	-0.10495844
175	0xbe05a90c	-0.13052768
176	0x3e22658e	0.15859053
177	0x3d882a92	0.06648745
178	0x3e17f4e5	0.14839514
179	0xbd8227dc	-0.06355259
180	0xbe257afa	-0.16160193
181	0xbd446156	-0.04794439
182	0x3db5ecc2	0.088830486
183	0x3e56ead4	0.20988017
184	0xbe004611	-0.12526728
185	0x3d923496	0.07138936
186	0x3ddd58ba	0.10807939
187	0xbe35ffb6	-0.17773327
188	0x3dbc95c5	0.09208254
189	0x3e17a0f5	0.14807494
190	0xbdcfd774	-0.10148516
191	0x3db78a00	0.08961868
192	0xbe0faff2	-0.14031962
193	0xbdb38619	-0.087658115
194	0xbda306b8	-0.07960266
195	0xbe016c0b	-0.12638871
196	0xbd0a91b9	-0.03383038
197	0xbd9407e1	-0.07228065
198	0x3c44ca5e	0.012011139
199	0xbe1b9a28	-0.15195525
200	0xbd77213d	-0.060334433
201	0xbd61a123	-0.055085313
202	0x3dd6919c	0.104769915
203	0x3e09fb6b	0.13474815
204	0x3c5ecd30	0.013598725
205	0xbda613c9	-0.081092425
206	0x3e013969	0.12619556
207	0xbd69d0a7	-0.057083752
208	0xbda0e2d9	-0.07855768
209	0x3cf71b5d	0.030164415
210	0xbddf227a	-0.10895248
211	0x3daeb4b8	0.08530563
212	0xbdfa899e	-0.1223328
213	0xbd0aeaba	-0.03391526
214	0xbe33fb02	-0.1757622
215	0x3de39691	0.11112703
216	0x3c91db52	0.017804775
217	0xbd112599	-0.035436247
218	0x39e6b392	0.0004400281
219	0xbda5a6b7	-0.08088439
220	0xbdbc6114	-0.09198204
221	0x3e21b792	0.15792683
222	0xbda22a39	-0.079182096
223	0x3c68ab63	0.014201018
224	0x3e2555b2	0.16145971
225	0xbcf080ca	-0.029358286
226	0x3e0bc5e7	0.13649713
227	0xbd9cf1b6	-0.0766329
228	0xbe34c065	-0.17651518
229	0x3c7d3716	0.015455028
230	0x3e1ab7b3	0.15109138
231	0xbe32658a	-0.17421547
232	0x3cc4cd90	0.024023801
233	0xbd6e1f02	-0.05813504
234	0xbe16ca57	-0.14725624
235	0xbda05193	-0.07828059
236	0xbd29a4a1	-0.041416768
237	0xbe275259	-0.16340007
238	0xbdbbea40	-0.09175539
239	0x3d5df144	0.054185167
240	0xbe192ecc	-0.14959258
241	0x3db09041	0.08621264
242	0xbd660c43	-0.056164037
243	0xbdb842fa	-0.0899715
244	0x3e170fbc	0.14752096
245	0xbaf70fe6	-0.0018849343
246	0xbe0bc1f6	-0.13648209
247	0xbd24bcfc	-0.040219292
248	0x3d68057f	0.056645866
249	0x3e25a43c	0.16175932
250	0xbcb50f46	-0.02210201
251	0xbe0788f7	-0.13235842
252	0x3e0f1cef	0.13975881
253	0xbc7f61d6	-0.015587291
254	0xbe2861ff	-0.16443633
255	0xbe10711f	-0.14105652

w.bias f4 [32]
0	0x3e14a6e6	0.14516792
1	0xbb997a47	-0.004683766
2	0xbdb3507d	-0.08755586
3	0x3d8462ee	0.06464182
4	0x3e1ae270	0.15125442
5	0xbe4dce2a	-0.20098177
6	0x3e20608c	0.1566183
7	0xbdace12e	-0.08441387
8	0x3cd6b32c	0.026208483
9	0xbe214f5f	-0.15752934
10	0x3e0f0891	0.13968112
11	0x3bb73bc0	0.0055918396
12	0x3db62e6c	0.08895573
13	0x3dff17e5	0.124557294
14	0xbe3de8f3	-0.18545894
15	0xbe28963a	-0.16463557
16	0xbcac4bfa	-0.021032322
17	0xbe308826	-0.17239437
18	0x3e18ac4c	0.14909476
19	0xbe11d3af	-0.14240907
20	0xbe3d098d	-0.18460675
21	0xbe0893ea	-0.13337675
22	0x3dd2eb1d	0.102987505
23	0xbdd682d3	-0.104741715
24	0x3dc06596	0.09394376
25	0x3e0ba134	0.13635713
26	0xbde23631	-0.110454924
27	0x3db5aacc	0.088704675
28	0x3bf3963a	0.00743368
29	0x3e026aaf	0.12736009
30	0xbcc68d22	-0.02423722
31	0xbda85378	-0.082190454

fc1.weight f4 [64, 32]
0	0xbe2849c0	-0.16434383
1	0x3e064f64	0.13116223
2	0xbd7293d5	-0.059223015
3	0xbe249749	-0.16073336
4	0x3ca2b688	0.019862428
5	0x3e193e75	0.14965232
6	0xbd48cde7	-0.04902449
7	0xbe034a81	-0.1282139
8	0x3dec401a	0.11535664
9	0xbc77e5b5	-0.01513045
10	0xbe1a25d9	-0.150535
11	0xbcc29ce4	-0.023756452
12	0x3dabd4bf	0.083901875
13	0xbe48d690	-0.19613099
14	0xbe0c08a2	-0.13675168
15	0xbcf41324	-0.029794283
16	0x3db085ba	0.08619256
17	0x3e38dd31	0.18053128
18	0xbceec24e	-0.029145386
19	0xbe1817ec	-0.14852875
20	0x3df3ed4c	0.11910495
21	0xbd62cbb0	-0.055370033
22	0x3b98f1b5	0.0046674856
23	0xbcb111c1	-0.021614911
24	0xbd971e09	-0.073787756
25	0xbcb9a546	-0.022661816
26	0xbe05fe0b	-0.13085191
27	0xbe2d9a64	-0.16953427
28	0x3e12fade	0.1435351
29	0xbcf354e7	-0.02970357
30	0x3c9f06a8	0.019412354
31	0xbe30153a	-0.17195597
32	0x3da53344	0.08066419
33	0x3e3dc9a0	0.18533945
34	0xbd63a9e6	-0.05558195
35	0xbdaf46cf	-0.085584275
36	0x3d20b88a	0.03923849
37	0x3c8b829b	0.017030051
38	0xbe559634	-0.20858079
39	0x3cdb3541	0.026758792
40	0xbe35d614	-0.17757446
41	0xbdba6d25	-0.09102849
42	0x3e400ce3	0.18754916
43	0xbe32804b	-0.17431752
44	0x3d9c391c	0.0762808
45	0x3b712e24	0.0036801184
46	0xbe529170	-0.20563293
47	0xbe405086	-0.18780717
48	0xbe25de70	-0.16198134
49	0x3aaa87fb	0.0013010496
50	0xbe1be3da	-0.15223637
51	0xbe0af34d	-0.13569374
52	0x3de368ed	0.111039974
53	0xbdcffb9c	-0.101554126
54	0x3d376a7d	0.04477929
55	0xbe1a0b61	-0.15043403
56	0xbde9e519	-0.1142065
57	0x3e535eb7	0.206416
58	0x3d242c49	0.040081296
59	0x3cdca901	0.026936056
60	0x3d05e348	0.032687455
61	0xbd2463ab	-0.040134113
62	0xbd133a88	-0.03594449
63	0x3d9f2d80	0.0777235
64	0x3d6ad75e	0.057334296
65	0xbd9c0c1e	-0.07619499
66	0x3e1103d6	0.1416162
67	0xbe462cb1	-0.19352986
68	0xbdc5784c	-0.096420854
69	0x3da051ab	0.07828077
70	0xbc010c2a	-0.007876435
71	0x3d3c8c68	0.04603234
72	0x3dedad3a	0.11605306
73	0x3e45c122	0.19311956
74	0xbe1d66d2	-0.15371254
75	0x3d2a3096	0.04155024
76	0xbce3e9a8	-0.027821377
77	0xbc576989	-0.01314772
78	0x3dff3fa3	0.124633096
79	0x3ddd3b57	0.10802334
80	0xbd441e0f	-0.04788023
81	0x3d8926e1	0.06696869
82	0xbd4ec887	-0.050484207
83	0x3e22a3c6	0.15882787
84	0xbd628cf6	-0.055310212
85	0xba14c3d2	-0.00056749315
86	0x3dbdbc96	0.092644855
87	0x3e002666	0.12514648
88	0xbc06760d	-0.008206856
89	0xbe0cab5a	-0.1373724
90	0x3ced272f	0.028949348
91	0x3de06333	0.10956421
92	0x3e4497ff	0.19198607
93	0xbdffd40c	-0.124916166
94	0x3dfc7720	0.12327409
95	0xbc0d48bc	-0.008623298
96	0x3e6101dc	0.21973366
97	0xbde24dbd	-0.11049984
98	0x3dd7102e	0.10501133
99	0x3e66fb8b	0.22556894
100	0x3d3e0f6a	0.04640142
101	0xbe53afdf	-0.20672558
102	0x3d2ee650	0.042700112
103	0xbd53dd80	-0.05172491
104	0xbd8019de	-0.06254934
105	0x3e153bc2	0.14573577
106	0xbd5e40cf	-0.054261025
107	0x3c091eb2	0.008369135
108	0x3e6328a2	0.22183469
109	0xbcb33e4e	-0.021880295
110	0xbe246961	-0.16055824
111	0xba55ec39	-0.0008160505
112	0x3d1589db	0.036508422
113	0xbd5d290c	-0.053994223
114	0xbd925df3	-0.07146826
115	0xbddeac46	-0.10872702
116	0xbe1b3823	-0.15158133
117	0x3c095b3e	0.00838357
118	0x3e27e62c	0.16396397
119	0x3d6dcb86	0.058055423
120	0x3df0719f	0.117404215
121	0xbe178622	-0.14797261
122	0xbd872655	-0.06599108
123	0xbd2d3bf9	-0.042293523
124	0x3e03fd31	0.12889554
125	0x3e30304d	0.17205925
126	0x3e046b32	0.12931517
127	0x3e22e78a	0.15908638
128	0xbcf6a759	-0.030109094
129	0x3e23470f	0.15945075
130	0x3d8a9c51	0.06768096
131	0x3df20207	0.11816793
132	0xbdd42612	-0.10358824
133	0x3d8425ff	0.0645256
134	0x3c4a8abe	0.01236218
135	0xbddc2cf0	-0.10750759
136	0xbdda6ca3	-0.10665252
137	0x3ddd1ba3	0.10796287
138	0x3d78600e	0.06063848
139	0x3cdd2999	0.026997374
140	0xbd9c978a	-0.07646091
141	0x3e020b85	0.12699707
142	0xbdd5220c	-0.104068846
143	0x3d5a253a	0.05325816
144	0xbe085af2	-0.13315943
145	0x3d5ebc2f	0.054378685
146	0xbdb9d6a3	-0.09074142
147	0x3ca6b3a4	0.020349331
148	0xbdc96aeb	-0.09834846
149	0x3dc2c265	0.09509734
150	0xbd966b6e	-0.07344709
151	0x3d7f3073	0.062302064
152	0x3decf4d5	0.115701355
153	0xbd722d2c	-0.05912511
154	0xbd4ae024	-0.049530163
155	0x3e150745	0.14553554
156	0x3dbfac8a	0.09359081
157	0xbdd9e97e	-0.10640238
158	0x3df61c64	0.12017134
159	0x3e417a0c	0.18894213
160	0xbe365abb	-0.17808048
161	0xbda8c841	-0.082413204
162	0xbe261b59	-0.1622137
163	0xbd53c09e	-0.051697366
164	0x3ade4f83	0.0016960952
165	0xbd8ec8e9	-0.06971914
166	0xbdb4219f	-0.08795475
167	0x3d979198	0.07400817
168	0xbe2dfb49	-0.16990389
169	0x3e2b0958	0.16702783
170	0x3da5b463	0.08091047
171	0xbde45a86	-0.111500785
172	0x3e0c1c56	0.13682684
173	0x3d69208f	0.056915816
174	0xbdb8e7ed	-0.09028611
175	0xbd8b7ddb	-0.068111144
176	0x3e23dfe6	0.16003379
177	0x3e15029a	0.14551774
178	0x3dbaf1c0	0.091281414
179	0x3cb4be36	0.022063356
180	0x3d563811	0.052299563
181	0xbcebbef4	-0.028777577
182	0xbdac3b88	-0.08409792
183	0xbbd67cc9	-0.0065456373
184	0x3d66bd7f	0.05633306
185	0xbc008963	-0.007845256
186	0x3da6c303	0.08142664
187	0x3dc8c123	0.09802463
188	0x3de29a58	0.11064595
189	0xbdac8a4b	-0.08424815
190	0x3e0b7e6e	0.13622448
191	0x3d931e27	0.071834855
192	0x3d979f86	0.074034736
193	0xbe04a28c	-0.12952632
194	0xbe1d60c3	-0.15368943
195	0x3e136769	0.14394917
196	0x3d26824e	0.040651612
197	0x3d44f822	0.0480882
198	0x3e59138b	0.21198861
199	0x3d16a316	0.036776625
200	0x3dcb4dbf	0.09926938
201	0xbdd473ae	-0.10373627
202	0xbc0ea2a4	-0.008705769
203	0x3d8f4c21	0.06996942
204	0x3d9dbf9b	0.077025615
205	0xbd047104	-0.032334343
206	0x3d8efc23	0.06981685
207	0x3ca42c93	0.020040786
208	0xbcd88ecd	-0.02643528
209	0x3d0b1183	0.033952247
210	0xbe30c3ec	-0.17262238
211	0xbca656c4	-0.020305045
212	0xbda5d629	-0.080974884
213	0x3dd8706e	0.10568319
214	0xbdc769ba	-0.097369626
215	0x3c1f7757	0.009733043
216	0xbd243e1c	-0.040098295
217	0x3da2f184	0.07956222
218	0x3dab29ee	0.08357607
219	0xbe1cf9c5	-0.15329655
220	0x3d3f7566	0.04674282
221	0xbdca3224	-0.09872845
222	0x3cc978d5	0.02459375
223	0xbd8ce175	-0.0687894
224	0x3de2cae5	0.11073855
225	0xbc55c8de	-0.013048379
226	0xbe06c1a4	-0.13159806
227	0xbdf6a507	-0.12043195
228	0xbc451934	-0.012029935
229	0xbdddb936	-0.10826342
230	0xbd7fd88e	-0.062462382
231	0xbdd13094	-0.10214344
232	0x3d2b49f5	0.041818578
233	0x3d1567a0	0.036475778
234	0x3d1999fd	0.03750037
235	0xbdf62a41	-0.12019778
236	0xbd061f20	-0.032744527
237	0x3e292180	0.16516685
238	0xbdd82467	-0.10553818
239	0xbc1b5ecc	-0.009483051
240	0xbdc9af77	-0.098479204
241	0xbd80f108	-0.06295973
242	0x3cd03a7c	0.025418513
243	0x3db190df	0.0867021
244	0xbe4b55d5	-0.19856961
245	0x3d99f586	0.07517533
246	0x3e142519	0.14467277
247	0x3b701414	0.0036633061
248	0x3d4fe89f	0.050758954
249	0x3d8990c2	0.067170635
250	0xbe20df94	-0.15710288
251	0x3e378423	0.179215
252	0x3e213a30	0.15744853
253	0x3cfa941b	0.0305882
254	0xbe1766e7	-0.14785348
255	0xbdbc4144	-0.09192136

fc1.bias f4 [64]
0	0x3d540911	0.05176646
1	0x3cd5f0ef	0.026115863
2	0xbe1abe2f	-0.15111612
3	0x3e5b1d76	0.21397957
4	0x3df9d930	0.12199628
5	0x3cee4aac	0.02908834
6	0x3e01f2b8	0.12690246
7	0xbe132108	-0.14368069
8	0x3e1c9d4a	0.15294376
9	0x3d80c487	0.062874846
10	0xbdc440b6	-0.09582655
11	0x3d2e793f	0.042596098
12	0xbe8cd5aa	-0.27506763
13	0x3ca21c6c	0.019788943
14	0xbd935d43	-0.07195523
15	0xbdb7c5da	-0.08973284
16	0x3cbbb7f7	0.02291487
17	0xbd983c60	-0.074333906
18	0xbdbdccb9	-0.092675634
19	0xbdbf514e	-0.093416795
20	0xbe120506	-0.14259729
21	0xbc1424f4	-0.009042013
22	0x3dfebf1b	0.12438794
23	0xbc9ab26a	-0.018883903
24	0x3db82d0e	0.089929685
25	0xbbb80972	-0.0056163603
26	0xbc375418	-0.011189483
27	0x3e0f3dbc	0.13988394
28	0x3e0f3ea5	0.1398874
29	0x3e074853	0.13211183
30	0x3c790101	0.015197993
31	0xbdfdf1a8	-0.12399608
32	0x3d6fbd92	0.058530398
33	0x3e20073e	0.15627763
34	0xbe5b34fb	-0.21406929
35	0xbd78b8e2	-0.060723193
36	0xbd3e57d4	-0.04647048
37	0x3d56dea6	0.052458428
38	0x3d9e43e1	0.077277906
39	0xbca45844	-0.02006162
40	0x3e1c3ee3	0.15258364
41	0xbde0c4af	-0.109750144
42	0x3d123905	0.03569891
43	0x3e1beccf	0.15227054
44	0x3d853642	0.065044895
45	0xbcd6478a	-0.02615716
46	0x3e46b155	0.19403584
47	0x3a63d199	0.0008690595
48	0xbdd02c31	-0.10164679
49	0xbe50cf0f	-0.20391487
50	0x3e071a4a	0.13193622
51	0x3e303891	0.17209078
52	0xbd07852d	-0.03308599
53	0xbddaf234	-0.10690728
54	0x3c194d83	0.009356859
55	0x3e041b63	0.12901072
56	0xbe074c34	-0.13212663
57	0xbc9bd434	-0.019022085
58	0xbda4e941	-0.08052302
59	0x3e619b3a	0.2203187
60	0x3e16b8b6	0.14718899
61	0xbdef1d00	-0.11675453
62	0x3d1468b7	0.036232676
63	0xbd8f1b78	-0.06987661

fc2.weight f4 [3, 64]
0	0xbdab3861	-0.08360363
1	0x3d6d2733	0.05789871
2	0x3dc568f2	0.09639157
3	0xbd963588	-0.07334429
4	0x3c0a6128	0.008446015
5	0xb8384849	-4.393634e-05
6	0x3d341218	0.043962568
7	0x3df41338	0.11917728
8	0x3dec7338	0.11545414
9	0x3d4357d6	0.04769119
10	0x3dbff765	0.09373359
11	0x3dd9f0e8	0.10641652
12	0x3cece0e9	0.02891584
13	0x3e49fd5b	0.19725554
14	0xbd6b829f	-0.057497617
15	0xbc887b66	-0.016660403
16	0xba460f46	-0.00075553765
17	0x3e1a9517	0.15095936
18	0x3da79ec8	0.08184582
19	0x3e01596d	0.1263177
20	0xbc836827	-0.016040875
21	0x3dda50b7	0.106599264
22	0xbd86dbe7	-0.06584912
23	0xba414c52	-0.00073737383
24	0x3d4c4564	0.049870864
25	0xbde25911	-0.11052144
26	0x3db2e01e	0.08734153
27	0x3dd393b6	0.10330908
28	0x3db20ddd	0.086940505
29	0xbd80bdc5	-0.06286196
30	0x3d0ba216	0.034090124
31	0x3e02cd16	0.12773547
32	0xbddb4d94	-0.10708156
33	0x3dbe72cd	0.0929924
34	0xbdcdaf04	-0.10043147
35	0xbd28279e	-0.041053407
36	0xbddb707c	-0.10714814
37	0x3d9cfec6	0.07665782
38	0xbe11be82	-0.14232829
39	0x3dff01c3	0.12451508
40	0xbd546439	-0.051853392
41	0x3cec65bf	0.02885711
42	0xbc743e0a	-0.014907369
43	0xbdaa7a0c	-0.0832406
44	0xbd4bbe0f	-0.0497418
45	0xbca7abdc	-0.020467691
46	0x3da0b043	0.07846119
47	0xbdbf3cb7	-0.09337752
48	0x3d1f6a99	0.03892002
49	0xbd5db091	-0.054123465
50	0xbdbc057b	-0.09180733
51	0xbcdb7e88	-0.026793733
52	0x3d127575	0.035756547
53	0x3a83718c	0.0010028346
54	0xbc85f43b	-0.01635181
55	0x3dc41731	0.09574736
56	0x3df6235a	0.120184615
57	0x3e226b2a	0.15861192
58	0xbdb1a64d	-0.086742975
59	0xbe0ce7ee	-0.13760349
60	0x3cc6c66a	0.024264533
61	0xbd38f33e	-0.04515385
62	0x3dafc3b2	0.08582248
63	0x3ddb33b9	0.10703225
64	0x3d7358aa	0.05941073
65	0xbdc78011	-0.097412236
66	0xbdb88a49	-0.09010751
67	0xbc3833b8	-0.011242799
68	0xbdae66e2	-0.08515717
69	0x3cd3f992	0.02587584
70	0x3d94428c	0.07239255
71	0xbdaff234	-0.085911185
72	0xbdd48f75	-0.10378925
73	0xbdc40693	-0.095715664
74	0x3d69552c	0.05696599
75	0xbda880b3	-0.082276724
76	0x3d7d3bdd	0.06182467
77	0xbe429222	-0.19001058
78	0xbd85a57a	-0.06525703
79	0xbd5f8171	-0.054566804
80	0xbd1055b4	-0.035237983
81	0x3e016f52	0.12640122
82	0x3e2abe73	0.16674213
83	0xbd8cdb51	-0.06877769
84	0x3ba889ca	0.005143379
85	0x3dace2e8	0.084417164
86	0x3d6f2448	0.05838421
87	0xbd83d608	-0.064373076
88	0xbd8e2a81	-0.06941701
89	0xbde51146	-0.11184935
90	0xbd412685	-0.047155876
91	0x3ce0b856	0.027431648
92	0xbda7ea11	-0.081989415
93	0x3cd99523	0.026560372
94	0xbe044b4c	-0.12919348
95	0x3deb43ed	0.11487565
96	0x3db2940a	0.087196425
97	0x3bc0424c	0.005867278
98	0x3c9310cd	0.017952347
99	0x3c8d895f	0.017277418
100	0x3d8d8b85	0.06911377
101	0xbdb666b7	-0.0890631
102	0x3e0ffa73	0.14060383
103	0x3d5cbd07	0.053891208
104	0xbd866ceb	-0.06563743
105	0xbd8929d8	-0.06697434
106	0xbe127b27	-0.14304791
107	0x3d645624	0.055746213
108	0x3d92397d	0.07139871
109	0x3cc9f6bc	0.024653785
110	0x3d2c8d40	0.042126894
111	0x3d11b719	0.035575006
112	0xbe21413a	-0.15747538
113	0x3c461bd3	0.012091595
114	0xbdabbf4c	-0.08386096
115	0x3d2dff7d	0.04247998
116	0x3c916696	0.017749112
117	0x3b32018d	0.002716157
118	0x3d38fd55	0.04516347
119	0x3dc2c4bb	0.095101796
120	0x3e210a90	0.15726686
121	0xbc75ff18	-0.015014432
122	0xbe09cb41	-0.13456441
123	0xbe0df82f	-0.13864206
124	0xbda9068f	-0.08253204
125	0x3e1c8318	0.15284383
126	0xbdb33ce0	-0.08751845
127	0x3d41c867	0.04731026
128	0xbde336fa	-0.1109447
129	0xbe015844	-0.12631327
130	0x3e07178c	0.13192576
131	0x3e45ba12	0.19309261
132	0xbdbd642e	-0.092476234
133	0x3cd85d91	0.026411803
134	0x3df945fb	0.12171551
135	0x3d729d84	0.05923225
136	0x3d105b35	0.03524323
137	0x3c12344e	0.008923603
138	0xbdf83af4	-0.121206194
139	0xbda2ee0d	-0.07955561
140	0xbe2c21c2	-0.16809753
141	0x3d75e78a	0.060035266
142	0x3e3eb18c	0.18622416
143	0x3d0f3191	0.03495938
144	0xbe012e49	-0.12615313
145	0xbdcd9857	-0.10038822
146	0xbe0532b0	-0.13007617
147	0x3d47acc0	0.04874873
148	0x3d32d18a	0.043656863
149	0xbe389a2c	-0.18027562
150	0xbddc1f30	-0.10748136
151	0x3dbdf019	0.092743106
152	0x3cb02ee5	0.021506736
153	0x3e2389c0	0.15970516
154	0xbdbc6e7f	-0.09200763
155	0x3d856197	0.065127544
156	0xbd61e391	-0.055148665
157	0xbe214633	-0.15749435
158	0x3cb4fc8c	0.02209308
159	0x3d58f518	0.052968115
160	0xbc1d296f	-0.009592398
161	0xbcf91e83	-0.030410057
162	0x3e6f0df1	0.23345162
163	0x3cddf9f3	0.027096724
164	0x3d247b87	0.040156867
165	0xbd497a6b	-0.049189012
166	0xbe30fa7f	-0.17283057
167	0xbd84ea5d	-0.06490014
168	0x3da415e7	0.0801199
169	0x3a092bba	0.0005232651
170	0xbd8f5885	-0.06999306
171	0x3ce90b9b	0.028447917
172	0x3d7e6796	0.062110506
173	0xbdb92a67	-0.09041291
174	0xbe083842	-0.1330271
175	0xbdf820ba	-0.12115617
176	0x3e09709a	0.1342186
177	0xbe23e1b4	-0.16004068
178	0x3d793875	0.060844857
179	0x3e550555	0.20802815
180	0xbe0870e8	-0.1332432
181	0xbdf2cd5a	-0.11855574
182	0xbdcca431	-0.099922545
183	0xbddfa449	-0.10920007
184	0xbe0dcdb3	-0.13848
185	0xbd396b37	-0.045268264
186	0xbd0a1ebf	-0.033720728
187	0x3d8c2273	0.06842508
188	0x3a7cb11e	0.00096394296
189	0xbd805124	-0.06265476
190	0xbd832628	-0.06403762
191	0xbd228090	-0.039673388

fc2.bias f4 [3]
0	0x3d206956	0.039162956
1	0x3d720592	0.059087344
2	0x3dbdf666	0.092755124
