models/fno_overunder.pth (torch, 279954 bytes, 7 tensors)

fc0.weight f4 [32, 3]
0.10282705 0.5262541 -0.22699194 -0.0032353273 0.35839435 0.22653352 -0.4664049 -0.44174525
0.188304 -0.18691628 0.2745784 0.52678514 0.013205477 -0.19195628 0.45256537 0.053447325
0.05466466 -0.5364093 0.43597427 0.12254754 -0.4968789 -0.21929708 0.13651022 0.4025072
0.25208318 0.45262384 0.02119684 -0.35514745 -0.0325149 -0.5179811 -0.32389817 -0.17181244
0.48611552 -0.008184551 -0.19968341 -0.10266913 0.32667542 0.13610083 -0.3780079 0.5764971
0.1274846 0.54173857 0.17541276 0.21583128 -0.5148915 0.10899817 0.022305157 -0.4084122
0.46434748 0.06451696 -0.44440395 -0.22307587 -0.21327983 0.43719923 -0.5942856 0.15623842
0.20624718 0.5513641 -0.340209 -0.46072397 -0.4106305 0.159228 0.13341221 -0.34832746
0.24911906 0.22334987 0.27059242 -0.42328447 0.4024828 0.00619553 -0.12232245 0.40284106
-0.54197866 0.53095764 -0.3589623 0.5156808 -0.2525042 -0.5592943 0.515869 0.37643245
-0.57973176 -0.081117205 0.42068467 -0.24285434 0.24716605 0.1345148 0.20577738 -0.48846835
0.17051567 -0.38569292 -0.24215026 -0.28261417 0.36945945 0.5664918 -0.02503065 0.39944082
00000000: fd96 d23d 97b8 063f 9370 68be c907 54bb
00000010: 777f b73e 67f8 673e a0cc eebe 6f2c e2be
00000020: c4d2 403e fb66 3fbe 8a95 8c3e 64db 063f
00000030: c95b 583c 3090 44be a6b6 e73e 95eb 5a3d
00000040: 0de8 5f3d 1f52 09bf 0538 df3e 34fa fa3d
00000050: e966 febe 6a8f 60be 56c9 0b3e 6c15 ce3e
00000060: 0c11 813e 50be e73e ffa4 ad3c e3d5 b5be
00000070: 582e 05bd 699a 04bf fbd5 a5be 9aef 2fbe
00000080: 22e4 f83e 7f18 06bc cf79 4cbe 3144 d2bd
00000090: 0042 a73e 045e 0b3e 408a c1be 5095 133f
000000a0: 538b 023e 61af 0a3f 679f 333e e002 5d3e
000000b0: eecf 03bf 6f3a df3d 4eb9 b63c 671b d1be
000000c0: f4be ed3e 7821 843d ea88 e3be 006e 64be
000000d0: 0766 5abe 94d8 df3e 1a23 18bf f7fc 1f3e
000000e0: 7632 533e 3326 0d3f e02f aebe 03e4 ebbe
000000f0: 293e d2be aa0c 233e 369d 083e fa57 b2be
00000100: 1119 7f3e d4b5 643e 178b 8a3e beb8 d8be
00000110: 3a12 ce3e df03 cb3b 3184 fabd 2f41 ce3e
00000120: 1dbf 0abf d7ec 073f e8c9 b7be a803 043f
00000130: 3b48 81be e92d 0fbf fe0f 043f c1bb c03e
00000140: 4d69 14bf c720 a6bd fb63 d73e cfae 78be
00000150: 1919 7d3e 3fbe 093e 4eb7 523e 8618 fabe
00000160: a99b 2e3e 8b79 c5be 3df6 77be ceb2 90be
00000170: ca29 bd3e 9b05 113f 140d cdbc 8283 cc3e

fc0.bias f4 [32]
0.06335544 0.49780285 0.045340113 -0.5389862 0.4140228 0.22911733 -0.3608773 -0.36101764
-0.23393244 -0.46594405 0.1290885 0.36051673 -0.27010268 0.17118774 -0.36044523 0.53794736
-0.05285612 -0.39620614 -0.59188086 0.5339245 -0.49835256 0.16640548 -0.35925898 0.4082798
0.17788306 -0.17230971 0.47780147 -0.040346064 -0.31347352 0.27901822 0.055818066 0.54937977
00000000: 7fc0 813d 04e0 fe3e 8eb6 393d 00fb 09bf
00000010: ccfa d33e bc9d 6a3e e9c4 b8be 4ed7 b8be
00000020: fc8b 6fbe 3890 eebe c72f 043e a695 b83e
00000030: e64a 8abe d74b 2f3e 478c b8be ebb6 093f
00000040: a97f 58bd 88db cabe 8185 17bf 47af 083f
00000050: 1128 ffbe 3366 2a3e cbf0 b7be 0d0a d13e
00000060: fa26 363e f571 30be 65a2 f43e ea41 25bd
00000070: 9a7f a0be 7adb 8e3e 7ca1 643d 27a4 0c3f

w.weight f4 [32, 32, 1]
-0.07575084 0.1125725 0.07144039 0.017099386 0.019707074 -0.07701317 -0.091058254 0.084242545
0.06874566 -0.11530856 0.120561466 0.14839695 0.079612754 0.12179283 -0.04217747 0.12551124
-0.14154813 -0.10399935 -0.16063805 0.021941738 0.13007654 -0.0762574 -0.11741919 -0.021418413
-0.0050856224 0.10261576 0.11946407 -0.09585547 -0.015862636 0.011740966 -0.120069735 0.1081916
-0.03910693 -0.040634554 0.12776619 0.08548833 0.14425486 -0.12052534 0.017675009 -0.042777043
-0.11609483 -0.038868167 0.05448679 -0.110927135 0.009221388 0.029630005 0.07060461 0.06810991
-0.07224208 -0.07376288 0.17674209 -0.020175932 0.0076785516 0.18426287 -0.21493033 0.106136955
0.20764779 0.08764971 0.17232135 0.08957107 0.09153868 -0.0480404 -0.04263581 -0.04047393
-0.09109478 -0.0075404174 -0.0151253315 0.091638505 0.06444114 0.17082359 0.050331686 0.03659344
0.053648382 -0.14814566 0.061856017 0.054129012 0.036974046 -0.15204534 -0.14987698 -0.001084317
0.2006444 -0.10296313 -0.09703125 -0.062371105 -0.103330016 -0.05327944 -0.1296556 -0.032852292
0.17836827 0.042873297 0.124967955 0.1606585 0.1369265 -0.016893482 0.055128496 0.08301746
0.15139028 -0.14002056 0.19756064 0.18940826 0.18886383 0.13710527 -0.11264269 -0.0024256296
-0.14907584 0.14331698 0.097333856 -0.03618863 0.042263534 -0.17819078 -0.13037415 -0.12206562
-0.05219077 0.20812136 0.1756328 -0.18959217 0.13674197 -0.08690927 -0.15170363 0.010477654
0.14088243 -0.13029686 -0.22781633 0.09761273 -0.05618508 0.040918212 0.13064778 0.119173706
-0.1533477 0.16188173 0.12858547 0.06588892 -0.07527137 0.06655818 0.11120242 -0.022649804
-0.13353215 0.052910414 0.047005184 -0.102818474 -0.08930304 -0.09983819 0.027853169 0.1845172
-0.00095685764 0.036504716 0.053027283 0.1342042 -0.18095623 -0.15292187 0.038807433 0.0024519686
-0.049902253 0.17141047 -0.09489157 0.016953645 -0.18993962 -0.058070756 0.14646076 0.034813188
0.10846046 -0.17329834 -0.020935565 0.08400402 -0.07808664 -0.029302511 -0.041684344 -0.033171944
-0.045668118 0.078558184 -0.07852781 0.11680952 -0.13893552 -0.09338667 -0.030444406 -0.2019065
-0.099749185 0.08054103 0.17702934 -0.16852951 0.11552439 -0.09729501 0.09640582 0.040713184
-0.14749207 -0.14663945 -0.15566215 -0.20836146 0.11363688 0.15309408 0.08693787 -0.002787365
-0.07337872 -0.07528204 -0.03048609 -0.08331893 -0.07696221 -0.21532528 -0.09808793 -0.117434494
-0.15377785 0.18844467 -0.13352352 -0.027449414 0.07807138 0.13538416 0.005890533 0.046453718
-0.20949712 -0.0046194936 0.085305154 -0.14180483 0.17451698 -0.05590193 0.24762037 -0.0118595725
-0.0032931482 -0.1648949 -0.17411694 -0.047853854 0.10028414 -0.11642287 -0.004132171 -0.13871494
-0.013975588 -0.14133771 -0.12381595 -0.03727964 0.008945954 0.060426522 0.2257945 0.078269765
-0.054873023 -0.03147786 0.058359902 0.033038497 0.22396734 0.11463408 -0.105077356 0.16884507
0.18352494 -0.15949933 -0.16074957 -0.1099605 0.11360239 -0.07513302 0.04947809 0.0006282721
0.06986526 -0.051879052 -0.08094094 -0.07229945 -0.063314416 -0.013989621 -0.13261275 0.22592612
00000000: 4223 9bbd 698c e63d 574f 923d 0314 8c3c
00000010: bb70 a13c 15b9 9dbd c07c babd 5b87 ac3d
00000020: 86ca 8c3d e526 ecbd eee8 f63d 5ff5 173e
00000030: 030c a33d 856e f93d 48c2 2cbd 0586 003e
00000040: fef1 10be 9cfd d4bd 4d7e 24be 29bf b33c
00000050: c932 053e d72c 9cbd 7979 f0bd ab75 afbc
00000060: 4ba5 a6bb 3628 d23d 94a9 f43d df4f c4bd
00000070: 5cf2 81bc 2e5d 403c 1fe7 f5bd 8f93 dd3d
00000080: 972e 20bd 6b70 26bd 24d5 023e 8114 af3d
00000090: 8cb7 133e fdd5 f6bd 2ecb 903c fb36 2fbd
000000a0: 20c3 edbd 3a34 1fbd 8a2d 5f3d c42d e3bd
000000b0: 4e15 173c a0ba f23c 2699 903d 357d 8b3d
000000c0: a8f3 93bd fe10 97bd e1fb 343e ff47 a5bc
000000d0: 5c9c fb3b 68af 3c3e b216 5cbe 555e d93d
000000e0: 9fa1 543e b181 b33d 0275 303e 0a71 b73d
000000f0: a278 bb3d 03c6 44bd e3a2 2ebd fec7 25bd
00000100: e68f babd 9b15 f7bb 3dd0 77bc f8ac bb3d
00000110: b7f9 833d 61ec 2e3e 9928 4e3d 01e3 153d
00000120: 68be 5b3d 7fb3 17be bc5c 7d3d 62b6 5d3d
00000130: 1972 173d c6b1 1bbe 5a79 19be a41f 8eba
00000140: ba75 4d3e 55de d2bd 52b8 c6bd d878 7fbd
00000150: b09e d3bd 8b3b 5abd 70c4 04be 2090 06bd
00000160: 2ca6 363e e99b 2f3d 33ef ff3d a983 243e
00000170: 7636 0c3e 3364 8abc 6bce 613d 0f05 aa3d
00000180: 0e06 1b3e 8d61 0fbe 564d 4a3e 3df4 413e
00000190: 8565 413e 5365 0c3e 36b1 e6bd 50f7 1ebb
000001a0: 56a7 18be b0c1 123e f956 c73d 873a 14bd
000001b0: 871c 2d3d a577 36be cd80 05be 8afd f9bd
000001c0: fdc5 55bd c41d 553e 16d9 333e 7324 42be
000001d0: 1606 0c3e 7dfd b1bd 3258 1bbe 77aa 2b3c
000001e0: 7c43 103e 8a6c 05be af48 69be 2fe9 c73d
000001f0: 5422 66bd db99 273d 88c8 053e 5811 f43d
00000200: 2e07 1dbe 53c4 253e e9ab 033e c5f0 863d
00000210: e027 9abd a84f 883d 18be e33d 158c b9bc
00000220: a7bc 08be 97b8 583d 8288 403d 7e92 d2bd
00000230: 83e4 b6bd f777 ccbd 542c e43c 14f2 3c3e
00000240: a1d5 7aba f885 153d 2333 593d d36c 093e
00000250: 974c 39be 8d97 1cbe 8bf4 1e3d 35b1 203b
00000260: 4e66 4cbd 3a86 2f3e 8356 c2bd 5fe2 8a3c
00000270: 887f 42be 9adb 6dbd cff9 153e 4698 0e3d
00000280: 8520 de3d 1f75 31be 1081 abbc 4d0a ac3d
00000290: e3eb 9fbd d20b f0bc 34bd 2abd 4edf 07bd
000002a0: 7e0e 3bbd 1de3 a03d 30d3 a0bd d439 ef3d
000002b0: 1d45 0ebe 8341 bfbd 8c66 f9bc 94c0 4ebe
000002c0: 4d49 ccbd b2f2 a43d 2e47 353e 0093 2cbe
000002d0: 0d98 ec3d 9b42 c7bd 6a70 c53d dec2 263d
000002e0: 2908 17be a728 16be e665 1fbe b55c 55be
000002f0: 74ba e83d b2c4 1c3e 7b0c b23d 3aac 36bb
00000300: 9547 96bd 782d 9abd f7bd f9bc 1da3 aabd
00000310: 5d9e 9dbd 3b7e 5cbe 53e2 c8bd 7f81 f0bd
00000320: f177 1dbe a4f7 403e 64ba 08be 98dd e0bc
00000330: e3e3 9f3d 25a2 0a3e 5f05 c13b 4146 3e3d
00000340: 6a86 56be 1f5f 97bb 78b4 ae3d 4935 11be
00000350: 94b4 323e 6cf9 64bd 3290 7d3e a74e 42bc
00000360: dcd1 57bb 35da 28be b64b 32be 6702 44bd
00000370: c561 cd3d 1d6f eebd 2a67 87bb 4a0b 0ebe
00000380: ddf9 64bc d5ba 10be 3793 fdbd 89b2 18bd
00000390: 0d92 123c cd81 773d ac36 673e e64b a03d
000003a0: 89c2 60bd eeee 00bd cb0a 6f3d 6053 073d
000003b0: b257 653e 46c5 ea3d cc32 d7bd b9e5 2c3e
000003c0: f6ed 3b3e cb53 23be 899b 24be f832 e1bd
000003d0: 5fa8 e83d 57df 99bd 8aa9 4a3d a0b2 243a
000003e0: 8415 8f3d 217f 54bd 5dc4 a5bd bc11 94bd
000003f0: fdaa 81bd b934 65bc a3cb 07be 2d59 673e

w.bias f4 [32]
0.12870383 -0.07423304 0.10114296 -0.13789766 0.0959031 -0.044174977 -0.209429 -0.008210472
-0.013049408 -0.09105131 -0.08406992 -0.037920643 -0.024117565 0.061371353 0.04941095 -0.03724255
0.025862835 0.06868608 0.13860478 0.06093479 0.00937081 -0.004080179 -0.1611679 -0.022492116
-0.07115239 -0.07151628 0.22779496 -0.19109142 -0.06600415 0.016556483 0.09575477 -0.060239214
00000000: f0ca 033e 7e07 98bd 0a24 cf3d 0b35 0dbe
00000010: d868 c43d d2f0 34bd 8e74 56be 3785 06bc
00000020: 2fcd 55bc 1c79 babd da2c acbd ad52 1bbd
00000030: 3392 c5bc 8760 7b3d 2363 4a3d a58b 18bd
00000040: 4cde d33c 4aab 8c3d 69ee 0d3e c296 793d
00000050: 0788 193c 06b3 85bb 3309 25be 6341 b8bc
00000060: 58b8 91bd 2177 92bd 1543 693e 78ad 43be
00000070: 2f2d 87bd 76a1 873c 141b c43d 65bd 76bd

fc1.weight f4 [64, 32]
-0.0075229346 0.03795487 -0.18797961 0.0046529532 0.080833584 0.08475852 0.19899476 0.07575212
0.019217802 -0.16119175 -0.016832618 0.14909045 0.08817467 -0.17702258 0.059711684 -0.02938813
-0.13706407 0.11586926 -0.01628404 0.013545815 0.13711487 -0.06065919 0.07845853 0.028236063
0.09450281 -0.15500438 -0.07376206 0.14304836 0.15083429 0.17418978 -0.09675054 0.057146735
-0.14600547 -0.04468933 0.020549523 0.11030959 0.015119903 -0.009058854 0.00824653 -0.044818178
0.031334817 -0.0683065 0.047020435 0.0030924198 0.021109857 0.15360065 0.16857184 0.04531772
0.1250615 0.16689245 0.067832485 0.112185985 0.14261264 0.14354898 -0.029993314 -0.051925335
0.014092276 -0.09287098 0.09298796 -0.07929424 -0.097712405 0.099347465 0.058140993 0.081529364
0.071848765 0.13809486 0.048606154 -0.10346046 -0.1325137 -0.13448769 -0.101207 0.1740818
-0.070517346 0.11739592 0.09234792 -0.046716917 -0.156742 0.21120688 -0.112416774 0.07793978
0.036005117 -0.033541534 0.090820685 -0.108865716 -0.056071367 -0.1139387 -0.0005228814 -0.1515027
0.039197415 -0.14083095 -0.11475254 0.14740282 0.03903465 -0.12625903 -0.029499969 -0.16252409
0.16858724 0.14672542 -0.025709376 0.021395478 0.15335059 0.006408059 0.12768166 -0.08284255
0.09920233 0.14822726 0.020271547 0.03983165 0.118291244 0.13049431 -0.111445986 0.082826465
-0.15637463 0.052167382 -0.14855017 0.022350214 -0.16824977 -0.19589245 -0.059358247 -0.014519732
-0.08094219 0.104883626 -0.04795944 -0.15401919 0.110298336 -0.06602317 -0.13597192 -0.01503261
-0.16567318 0.13169853 -0.02004972 0.13890885 -0.029700072 -0.08086906 0.12299192 -0.021809688
0.10832986 -0.09044184 0.05486536 0.05861304 -0.004909169 0.017111653 -0.112210475 0.20251508
0.057583265 -0.09559017 -0.13145386 -0.11489095 -0.04970451 0.14755242 0.00070934184 -0.07252127
-0.13877009 0.17274487 -0.113591604 0.032338414 0.10177279 -0.041683715 -0.114879206 0.15752451
-0.065027274 0.07511808 0.026934724 0.067242555 0.013351641 0.099192776 0.12313678 -0.030236296
-0.048903782 0.096082725 0.07346233 0.16849282 -0.14256886 0.03115594 -0.10914807 0.078978
-0.120615035 0.11248102 0.11914129 0.107087925 0.1302906 -0.06773468 -0.03383257 0.02005861
-0.1403294 0.15405414 -0.13083617 -0.09981555 -0.12722617 0.05427805 -0.010862187 -0.02247132
-0.009520947 -0.06851813 -0.07584311 0.110284545 0.0071634194 0.059175536 0.13917677 -0.07013708
0.038513906 -0.1687146 -0.032386318 -0.18128255 0.016889371 0.08238046 -0.11055924 -0.16143985
0.026009955 -0.17088857 -0.021085728 -0.13577309 -0.14599313 0.13133481 -0.027265135 -0.09915656
-0.028737908 -0.02173545 -0.055081826 0.13716272 0.08792175 0.023481727 0.079852596 -0.044907205
-0.11422648 0.12171197 0.07079248 -0.1788741 -0.0013547095 -0.14550465 -0.11467764 0.01673659
-0.07105377 0.055313457 -0.11640205 0.20977317 -0.03101953 0.089806885 0.10344122 0.17785417
-0.11533632 0.11496779 0.11223642 -0.1843817 0.09913425 0.067623325 0.06754032 -0.083849624
-0.061610036 -0.097890824 0.105827115 -0.04795913 -0.06017844 0.058844656 -0.06801284 -0.04373749
00000000: f382 f6bb 9176 1b3d ba7d 40be cd77 983b
00000010: 148c a53d e095 ad3d 48c5 4b3e ed23 9b3d
00000020: a76e 9d3c 730f 25be 8fe4 89bc 2bab 183e
00000030: ec94 b43d 6845 35be 3d94 743d 60bf f0bc
00000040: 865a 0cbe dd4c ed3d 1b66 85bc 44ef 5d3c
00000050: d767 0c3e c575 78bd deae a03d 514f e73c
00000060: b08a c13d 78b9 1ebe 9010 97bd 457b 123e
00000070: 4e74 1a3e ce5e 323e 2625 c6bd b212 6a3d
00000080: 7582 15be 290c 37bd 7957 a83c ffe9 e13d
00000090: 78b9 773c 966b 14bc 741c 073c 4493 37bd
000000a0: f058 003d 47e4 8bbd 8098 403d 32aa 4a3b
000000b0: 94ee ac3c 7d49 1d3e 199e 2c3e 139f 393d
000000c0: 1f10 003e dbe5 2a3e c2eb 8a3d c4c1 e53d
000000d0: 0c09 123e 81fe 123e 8ab4 f5bc a9af 54bd
000000e0: 4ae3 663c 2433 bebd 7970 be3d 0565 a2bd
000000f0: 711d c8bd af76 cb3d 4025 6e3d def8 a63d
00000100: 7225 933d bd68 0d3e 3f17 473d 14e3 d3bd
00000110: acb1 07be 24b7 09be 9e45 cfbd 8042 323e
00000120: 666b 90bd 466d f03d e820 bd3d 3d5a 3fbd
00000130: fa80 20be 9e46 583e c43a e6bd e49e 9f3d
00000140: 1a7a 133d d962 09bd 3200 ba3d fdf4 debd
00000150: 17ab 65bd b158 e9bd fa11 09ba 8623 1bbe
00000160: 788d 203d fd35 10be 6103 ebbd c4f0 163e
00000170: cce2 1f3d 0c4a 01be eba9 f1bc b76c 26be
00000180: 22a2 2c3e 303f 163e 789c d2bc 9245 af3c
00000190: f007 1d3e b2fa d13b fbbe 023e 5ba9 a9bd
000001a0: 972a cb3d e3c8 173e 8410 a63c 8326 233d
000001b0: ae42 f23d 4da0 053e cb3d e4bd eca0 a93d
000001c0: ac20 20be 77ad 553d 891d 18be cc17 b73c
000001d0: ab49 2cbe 0898 48be a221 73bd 2ce4 6dbc
000001e0: 05c5 a5bd 3acd d63d 1e71 44bd 35b7 1dbe
000001f0: 18e4 e13d 2837 87bd 393c 0bbe 564b 76bc
00000200: 3ba6 29be fbdb 063e 4f3f a4bc 1f3e 0e3e
00000210: 914d f3bc ad9e a5bd 30e3 fb3d 3baa b2bc
00000220: 0cdc dd3d 9239 b9bd 80ba 603d 3a14 703d
00000230: 18dd a0bb bd2d 8c3c 9bce e5bd 1d60 4f3e
00000240: 6edc 6b3d c7c4 c3bd d79b 06be f24b ebbd
00000250: f596 4bbd fb17 173e 20f3 393a 0886 94bd
00000260: bf19 0ebe 08e4 303e b7a2 e8bd 4975 043d
00000270: 416e d03d 8bbc 2abd ca45 ebbd 1b4e 213e
00000280: 052d 85bd 82d7 993d 36a6 dc3c 77b6 893d
00000290: d7c0 5a3c 9525 cb3d 232f fc3d 1cb2 f7bc
000002a0: 554f 48bd 05c7 c43d 6b73 963d 6289 2c3e
000002b0: 92fd 11be be3a ff3c 0689 dfbd 38bf a13d
000002c0: 0405 f7bd 735c e63d 5900 f43d ea50 db3d
000002d0: e66a 053e 7bb8 8abd 0594 0abd f451 a43c
000002e0: 83b2 0fbe 5ec0 1d3e ebf9 05be 186c ccbd
000002f0: 9447 02be a952 5e3d 50f7 31bc c615 b8bc
00000300: bffd 1bbc 3c53 8cbd a253 9bbd dddc e13d
00000310: 1ebb ea3b 0c62 723d 5b84 0e3e 08a4 8fbd
00000320: c2c0 1d3d 85c3 2cbe 84a7 04bd 22a2 39be
00000330: 945b 8a3c 16b7 a83d e26c e2bd 7d50 25be
00000340: d412 d53c 6afd 2ebe fabb acbc 1a08 0bbe
00000350: 397f 15be a27c 063e 225b dfbc 9812 cbbd
00000360: c36b ebbc 8b0e b2bc 7b9d 61bd 6274 0c3e
00000370: 5210 b43d c05c c03c c289 a33d 9ef0 37bd
00000380: 93ef e9bd 2044 f93d a6fb 903d c62a 37be
00000390: 8290 b1ba 2cff 14be 1cdc eabd 2c1b 893c
000003a0: a484 91bd 5d90 623d 3364 eebd c7ce 563e
000003b0: ab1c febc acec b73d fed8 d33d 671f 363e
000003c0: 7335 ecbd 3c74 eb3d 35dc e53d 8ece 3cbe
000003d0: e606 cb3d 197e 8a3d 9452 8a3d 5ab9 abbd
000003e0: ce5a 7cbd fc7a c8bd e3bb d83d cb70 44bd
000003f0: ab7d 76bd 1807 713d 514a 8bbd 1526 33bd

fc1.bias f4 [64]
-0.10410286 0.069651395 -0.107458435 0.10434806 0.104397476 0.07470763 0.02075594 0.0065399585
0.19271739 -0.114995316 0.06141539 0.067410745 0.007285995 0.05998317 0.07255805 -0.06738559
0.1739852 0.11548036 -0.14672953 0.08764587 -0.049888134 -0.12145358 0.10135687 -0.061014455
0.056180198 -0.15576182 -0.0080239875 -0.07564948 -0.052401185 -0.019355388 0.15759717 -0.059246715
-0.018347453 0.13867566 -0.12006802 -0.11716588 0.14809276 0.1498542 0.09753229 0.20034365
0.035213415 0.048001636 0.001781176 0.08393327 -0.14883657 -0.0353981 0.070199214 0.07582355
-0.11061761 0.12814198 0.15045734 -0.13087285 0.07242954 -0.15412629 0.12086765 -0.012395913
0.13800594 0.04326369 -0.16120946 0.1617842 -0.09054648 0.05735624 -0.09342342 -0.010614374
00000000: e133 d5bd 64a5 8e3d 2b13 dcbd 70b4 d53d
00000010: 58ce d53d 5000 993d 5c08 aa3c 264d d63b
00000020: b557 453e aa82 ebbd b48e 7b3d a50e 8a3d
00000030: 5bbf ee3b eab0 753d 5199 943d 7501 8abd
00000040: 2d29 323e f880 ec3d 4440 16be ae7f b33d
00000050: 8057 4cbd a8bc f8bd 3194 cf3d 4bea 79bd
00000060: 351d 663d 0780 1fbe 0b77 03bc 1dee 9abd
00000070: a0a2 56bd 318f 9ebc 2761 213e afac 72bd
00000080: 664d 96bc fe00 0e3e 39e6 f5bd aaf4 efbd
00000090: a1a5 173e 6173 193e 02bf c73d e326 4d3e
000000a0: f13b 103d 5d9d 443d 5976 e93a 35e5 ab3d
000000b0: 9d68 18be 99fd 10bd 9bc4 8f3d 6149 9b3d
000000c0: 7c8b e2bd a737 033e 7d11 1a3e 8803 06be
000000d0: f055 943d 48d3 1dbe 7589 f73d 3a18 4bbc
000000e0: 6e51 0d3e 4435 313d 1814 25be c2aa 253e
000000f0: 6f70 b9bd 60ee 6a3d c754 bfbd e9e7 2dbc

fc2.weight f4 [1, 64]
-0.118955836 0.13664311 -0.07985431 -0.028636098 0.12427507 0.008826477 -0.10286453 -0.07149822
0.056847945 -0.086801834 -0.05006407 -0.022692136 -0.05003754 0.076763965 0.12663116 0.0969904
0.094482645 0.118870325 -0.11269005 -0.03255301 -0.12635383 -0.20697317 -0.059348445 -0.08021952
-0.060016576 0.051592153 0.09127856 -0.07125421 0.07636231 0.009605571 0.08574173 -0.08493141
-0.10968801 -0.07685482 0.07434636 0.10757098 -0.06271455 -0.11950233 0.09687841 0.06316852
-0.10904061 -0.05494196 -0.106127836 0.12665106 -0.059900567 0.09067433 0.05065906 -0.14908025
-0.015559343 0.04647018 0.09662609 0.05655761 0.05721247 -0.072986886 -0.07904455 -0.07377195
-0.011188859 0.12715699 0.2269441 0.0859967 0.021440266 0.13315251 -0.123277485 -0.13928613
00000000: 1e9f f3bd 2cec 0b3e a88a a3bd 4096 eabc
00000010: ee83 fe3d ee9c 103c a4aa d2bd a96d 92bd
00000020: 64d9 683d 29c5 b1bd fb0f 4dbd dce4 b9bc
00000030: 2af4 4cbd 6d36 9d3d 99ab 013e e7a2 c63d
00000040: 1e80 c13d 4972 f33d 0aca e6bd 4e56 05bd
00000050: e662 01be c6f0 53be 5b17 73bd 224a a4bd
00000060: f1d3 75bd 4b52 533d 41f0 ba3d baed 91bd
00000070: d863 9c3d af60 1d3c 5c99 af3d 85f0 adbd
00000080: 1ba4 e0bd 0f66 9dbd e842 983d 2d4e dc3d
00000090: 7c70 80bd a3bd f4bd 3068 c63d 7f5e 813d
000000a0: af50 dfbd d20a 61bd 8d59 d9bd d1b0 013e
000000b0: 4c5a 75bd 77b3 b93d e07f 4f3d 7ea8 18be
000000c0: 9dec 7ebc 8457 3e3d e6e3 c53d f4a8 673d
000000d0: 9f57 6a3d 267a 95bd 1ce2 a1bd c015 97bd
000000e0: 7a51 37bc 7135 023e 0964 683e 0a1f b03d
000000f0: 7fa3 af3c 2259 083e e878 fcbd 06a1 0ebe
